clothing_classifier.onnx (onnx, 37802 bytes, 6 tensors)

conv1.weight f4 [8, 1, 3, 3]
00000000: 3f23 3a3c b415 403c edf6 353c 9261 613c
00000010: 9e53 793c 1bd8 6a3c 3be8 a23c 9682 ae3c
00000020: 1533 b73c 0a40 18ba a81c 32ba 462e 2dba
00000030: 36a3 0fba 636d 32ba 74ec 2eba 5fc2 28ba
00000040: cc44 2dba f86e 2cba 730b 4738 dc4a f5b8
00000050: d48d 85b9 ab44 c3b8 728a 84b9 6d1d 4739
00000060: 4e48 58b9 befe e5bb 25f6 8dbc ce79 a4b1
00000070: 426c ecb1 dd2d 04b2 84a0 99b1 6bc4 c5b1
00000080: ad0b c5b1 a022 2c2d 44b3 d8b1 01b7 c0b1
00000090: 2c74 42b3 6c62 89b4 8963 1eb6 abcf cfb3
000000a0: 6233 23b5 7af0 2cb6 f568 80b2 e911 86b5
000000b0: 5909 17b6 7084 0100 c001 0080 be58 0100
000000c0: 7066 0180 000c 0080 1711 3180 660c 0080
000000d0: a33a 0080 460c 0080 9204 0000 7e03 0000
000000e0: f401 0080 e315 0000 5609 0000 ba16 0000
000000f0: 5500 0000 0404 0000 0808 0000 c0bc f235
00000100: cd9e 7138 bf2b 2838 1954 b138 1685 d238
00000110: 6ea4 0238 ba86 8b38 7c80 e637 c0d4 3d36
0.011360942 0.011723924 0.011106235 0.013756173 0.01521769 0.01433375 0.019886127 0.021302503
0.022363225 -0.00058078824 -0.0006794431 -0.00066063215 -0.00054793374 -0.0006806461 -0.00066728075 -0.0006437655
-0.0006609678 -0.0006577815 4.745596e-05 -0.00011696454 -0.00025473407 -9.311115e-05 -0.00025280152 0.00018989081
-0.00020626301 -0.007018893 -0.017329285 -4.786876e-09 -6.8808115e-09 -7.693839e-09 -4.4711346e-09 -5.7557847e-09
-5.734782e-09 9.784756e-12 -6.3068075e-09 -5.6087406e-09 -4.5274803e-08 -2.558985e-07 -2.3601772e-06 -9.676963e-08
-6.0797004e-07 -2.5769973e-06 -1.494889e-08 -9.98899e-07 -2.2506194e-06 1.39345e-40 -6.28e-43 1.2367e-40
-1.28583e-40 -4.305e-42 -4.50607e-39 -4.448e-42 -2.1035e-41 -4.403e-42 1.64e-42 1.253e-42
-7e-43 7.851e-42 3.349e-42 8.153e-42 1.19e-43 1.44e-42 2.881e-42 1.8085339e-06
5.7606772e-05 4.0095063e-05 8.455682e-05 0.000100383695 3.1147552e-05 6.653131e-05 2.7477967e-05 2.8287031e-06

conv1.bias f4 [8]
00000000: 79de 33bc feea 66ba 7130 ffbf 1729 2dbd
00000010: b462 11bd b867 32a6 ef50 0080 d856 22b9
-0.010978335 -0.000880882 -1.9936658 -0.042275514 -0.03549452 -6.189672e-16 -2.9034e-41 -0.00015481876

conv2.weight f4 [16, 8, 3, 3]
00000000: f006 0080 2500 0000 cf14 0080 a302 0080
00000010: 0e25 0000 e900 0000 c500 0080 1e01 0080
00000020: 7511 0080 a40b 0000 760a 0080 7500 0080
00000030: 5a1f 0080 3200 0000 5b03 0080 8408 0000
00000040: 711b 0080 fc03 0000 1463 0100 6600 0000
00000050: 92b4 0080 4162 0000 1e1e 0180 13ea 0100
00000060: 008d 0080 b95e 0000 2e1e 0080 cab6 3d05
00000070: 8bde 9d03 f682 b684 c01b cd04 39b2 7c84
00000080: 6e36 d604 e2a5 fc82 7569 1003 5c41 6d02
00000090: ad75 0fb2 afdd a5ad a7d5 eeb5 f36c 9cac
000000a0: 4586 22a8 6517 8db6 a3d0 c016 404a 3e99
000000b0: 1088 d11b 4275 49b3 7432 2637 7c08 852f
000000c0: 90a7 a4b1 c478 47b6 eea4 a7b3 5422 a23a
000000d0: fc5f 5f31 7e15 16bc a602 0080 ac01 0080
000000e0: ff02 0080 6152 0080 0902 0080 fa02 0080
000000f0: 6e04 0000 5200 0000 8b01 0080 7943 0080
00000100: c635 0000 3022 0000 bf01 0080 6904 0080
00000110: e504 0080 6e21 0000 311e 0000 941f 0080
00000120: a0f5 02b9 5fbd e13a eed0 8aba 300e 6a3a
00000130: ace3 7cba 44a5 deb9 2887 96ba 9899 93b9
00000140: c70f 98ba 770a e633 3b9d 0b34 63e3 9935
00000150: e88e ceb4 5877 8035 0f0c e734 825b 0fb5
00000160: 70c0 4635 ff35 41b5 3a58 0d1f 9aae ca20
00000170: 5821 bc9f 68c5 de1e 8795 db20 d2db 02a0
00000180: cb6f f61f 751e d920 5a26 c79f a2e0 ceaa
00000190: e4b7 1fac feb4 3fab ea99 a6ab 89a1 29b8
000001a0: 4ca0 cdab be70 962b 1a50 952b 1dde 532b
000001b0: 43f1 4199 1696 040a cda9 5582 a675 d3a8
000001c0: b14d 948b 75d6 8602 ad23 031d 855b fa86
000001d0: 8171 0b00 1373 0200 f881 0400 3e60 0200
000001e0: 7b4b 0180 9ea7 0680 d121 0800 ddb1 0680
000001f0: 95a0 0b80 e003 0080 2203 0000 8802 0080
00000200: bd03 0080 2c03 0000 4305 0080 1b02 0000
00000210: d20b 0080 5d3f 0080 0a3a 0080 1cf0 4eae
00000220: 13e5 5db0 eebd 932f 0289 ec2f ce57 86b0
00000230: f4e6 8b30 62ff c9af 6a87 0d30 e26d c02f
00000240: 10e0 770f 1ede b50f 663c db0f 7800 780e
00000250: b89a d08f facb 1c0f 14ec 1290 f275 6d90
00000260: 6891 268f 3d33 c5ab a766 1dad 31f9 13ae
00000270: 9adb f5ab 4d4c 9dab 6800 9ead 3d16 592c
00000280: 0930 a62c 3426 baad 9ab4 6fa1 cbc0 87a1
00000290: 0507 b1a1 3cd6 b6a0 6c26 2021 b544 13a1
000002a0: 046b 56a1 58be 8e21 3cfe 8ca1 149b 8680
000002b0: 80a4 b400 2918 2780 5727 7000 7095 6580
000002c0: 72d7 9880 bcf3 a400 5b47 9080 113f 8980
000002d0: 3afc fbbc c618 c6bd 24ef a7be 19b2 a4bb
000002e0: 0d18 f9bc 1f38 61be 53aa 2eb6 d5e7 21ba
000002f0: 6235 88bd 35a0 0400 1149 1780 f842 0400
00000300: 8f15 0200 d445 0000 26d5 0500 a1d6 0300
00000310: 7741 0400 3120 0080 1c00 0000 f10d 0080
00000320: 3d04 0080 8200 0080 5701 0080 0d01 0000
00000330: 6700 0080 7f3c 0080 5602 0000 2418 b9b5
00000340: 4a87 7f36 8027 5137 1cac aeb5 b300 d7b8
00000350: 6c92 faba e6c9 aa35 4526 cfb9 aa07 8d3b
00000360: 0457 37a5 b6a4 7225 29c3 4625 8ec4 c324
00000370: d007 eea4 0819 c4a4 1b82 09a5 d74d 5ba5
00000380: 507f 5a25 f74d 4ea8 b7bb 5ba8 bee6 8aa8
00000390: f113 ada8 c0bc 15a5 803a a028 56d9 c9a8
000003a0: ee1e ffa8 8fc2 f7a8 8175 c037 1654 3db8
000003b0: 9e79 bd38 d0e4 c4b7 98ca 09b8 0bc9 8e38
000003c0: b18a 5bb7 c352 8b38 3c20 eeb8 f408 0083
000003d0: ae90 af82 632d e882 f8e3 3282 61fb a302
000003e0: 13d9 e582 6a83 e682 1645 0c02 66e5 e402
000003f0: 00e4 1d01 6e7c 0883 22f2 1e03 1b02 1b83
-2.489e-42 5.2e-44 -7.465e-42 -9.46e-43 1.3293e-41 3.27e-43 -2.76e-43 -4.01e-43
-6.262e-42 4.176e-42 -3.753e-42 -1.64e-43 -1.1247e-41 7e-44 -1.204e-42 3.055e-42
-9.844e-42 1.43e-42 1.27378e-40 1.43e-43 -6.4776e-41 3.5247e-41 -1.0264e-40 1.75806e-40
-5.0581e-41 3.398e-41 -1.0826e-41 8.92031e-36 9.278724e-37 -4.2908263e-36 4.8220753e-36 -2.9704293e-36
5.0361144e-36 -3.7123284e-37 4.2438855e-37 1.7430767e-37 -8.350452e-09 -1.8856776e-11 -1.7794563e-06 -4.4458825e-12
-9.0219216e-15 -4.204851e-06 3.1150941e-25 -9.8377644e-24 3.4664078e-22 -4.6905605e-08 9.906118e-06 2.4198588e-10
-4.792078e-09 -2.9723606e-06 -7.806544e-08 0.001236985 3.2505332e-09 -0.009160398 -9.5e-43 -6e-43
-1.075e-42 -2.9552e-41 -7.3e-43 -1.068e-42 1.589e-42 1.15e-43 -5.54e-43 -2.4205e-41
1.929e-41 1.2264e-41 -6.26e-43 -1.582e-42 -1.756e-42 1.1992e-41 1.083e-41 -1.1328e-41
-0.00012489269 0.0017222575 -0.001059083 0.00089285057 -0.0009646963 -0.00042466272 -0.0011484371 -0.0002815246
-0.0011601382 1.0712113e-07 1.3002584e-07 1.1465567e-06 -3.8474468e-07 9.571477e-07 4.3035877e-07 -5.340481e-07
7.404078e-07 -7.197668e-07 2.993089e-20 3.4335673e-19 -7.967626e-20 2.358681e-20 3.7198992e-19 -1.1084161e-19
1.0437e-19 3.6781385e-19 -8.4343226e-20 -3.674882e-13 -2.2697339e-12 -6.810801e-13 -1.1837729e-12 -4.044318e-05
-1.4610617e-12 1.0689433e-12 1.0609319e-12 7.5270503e-13 -1.00265886e-23 6.383797e-33 -1.5697499e-37 -2.3476728e-14
-5.7124423e-32 1.9812623e-37 1.735615e-21 -9.4174024e-35 1.050908e-39 2.24952e-40 4.13966e-40 2.18196e-40
-1.18913e-40 -6.11143e-40 7.46815e-40 -6.14818e-40 -1.067796e-39 -1.39e-42 1.124e-42 -9.08e-43
-1.341e-42 1.138e-42 -1.888e-42 7.55e-43 -4.24e-42 -2.273e-41 -2.082e-41 -4.7052237e-11
-8.0724866e-10 2.6874097e-10 4.30255e-10 -9.774739e-10 1.0179222e-09 -3.6743147e-10 5.1487936e-10 3.5002673e-10
1.2221193e-29 1.7933534e-29 2.1618332e-29 3.0568586e-30 -2.0569979e-29 7.730678e-30 -2.897529e-29 -4.683087e-29
-8.212436e-30 -1.4011913e-12 -8.94721e-12 -3.3645257e-11 -1.7469249e-12 -1.1176699e-12 -1.79627e-11 3.08499e-12
4.7233367e-12 -2.1162717e-11 -8.1215374e-19 -9.198988e-19 -1.1995845e-18 -3.0973768e-19 5.426096e-19 -4.989647e-19
-7.2647654e-19 9.672678e-19 -9.554064e-19 -1.2361588e-38 1.6589401e-38 -3.590251e-39 1.0299688e-38 -9.328993e-39
-1.4036283e-38 1.5148457e-38 -1.3249909e-38 -1.2604087e-38 -0.03075992 -0.09672694 -0.32799637 -0.0050261137
-0.030406976 -0.21994065 -2.6027162e-06 -0.0006176208 -0.06650807 4.24813e-40 -2.138428e-39 3.91366e-40
1.91405e-40 2.505e-41 5.35641e-40 3.52501e-40 3.90826e-40 -1.1548e-41 3.9e-44 -5.001e-42
-1.52e-42 -1.82e-43 -4.8e-43 3.77e-43 -1.44e-43 -2.1702e-41 8.38e-43 -1.37906e-06
3.807671e-06 1.2466568e-05 -1.3014101e-06 -0.00010252129 -0.0019117123 1.2724747e-06 -0.0003951063 0.004303892
-1.5902202e-16 2.104596e-16 1.7239885e-16 8.4900746e-17 -1.0322928e-16 -8.5043855e-17 -1.1926937e-16 -1.9021595e-16
1.8951621e-16 -1.1452203e-14 -1.2197646e-14 -1.5421146e-14 -1.9215507e-14 -1.2987641e-16 1.7788939e-14 -2.2409737e-14
-2.83241e-14 -2.7506885e-14 2.29429e-05 -4.5139423e-05 9.034875e-05 -2.347157e-05 -3.2852025e-05 6.808535e-05
-1.3085709e-05 6.643452e-05 -0.000113547285 -3.7626097e-37 -2.579698e-37 -3.4115387e-37 -1.3142798e-37 2.4094982e-37
-3.377312e-37 -3.387089e-37 1.0305402e-37 3.3633257e-37 2.8999928e-38 -4.0109646e-37 4.670998e-37 -4.5552823e-37

conv2.bias f4 [16]
00000000: 8d2b e4a5 c6e6 e8bf 010a 79ba a311 d1bf
00000010: 36e4 a7bc b088 7cba a67e 1dbf a7bc 2fa5
00000020: 5d58 adb6 c4bc 1aba 0306 b53f 3853 e6bf
00000030: 57be ffbc e5c1 65b6 eaec b9bf 5170 99bf
-3.9581206e-16 -1.8195426 -0.0009500087 -1.6333507 -0.020494562 -0.0009633405 -0.61521375 -1.5242748e-16
-5.1660886e-06 -0.0005902762 1.414246 -1.7994146 -0.03121869 -3.423652e-06 -1.4525425 -1.1987401

classifier.weight f4 [10, 784]
00000000: d5a8 1380 e1f6 1c80 ea6b 0800 8fb3 4d00
00000010: 851f 0301 1f8d 3981 3386 1580 1582 0080
00000020: f134 0180 3883 0280 feb6 0280 4b8b 0280
00000030: 8e5e 0180 8dbe 0080 22c4 0080 9091 0180
00000040: 3488 0280 23c5 0280 e5c3 0280 03c3 0180
00000050: 97c8 0080 40ce 0080 7092 0180 a6b5 0280
00000060: f1d8 0280 28de 0280 0eab 0180 13e6 0080
00000070: aacc 0080 143e 0180 2dc3 0280 aead 0280
00000080: 39a7 0280 7d5f 0180 9be4 0080 2e89 1480
00000090: 3356 4080 e926 4780 3ef0 3180 7e93 0280
000000a0: ab13 0180 f97b 0080 8027 5c01 709d 7b01
000000b0: 0332 4003 2ce4 0a03 1e33 3b03 4ec8 5001
000000c0: c3c9 1e01 d55f d9bb 672b d9bb 3973 dabb
000000d0: c006 dbbb 34f5 dabb 67a5 d9bb b126 dabb
000000e0: c62a d9bb b54d d9bb f0c7 dabb 365d dbbb
000000f0: cf03 debb 4d79 dabb 0f73 d9bb 3516 d9bb
00000100: 9e78 d9bb 8a6b d9bb 3835 dabb fe79 dabb
00000110: a160 dabb a000 dcbb 32a7 d9bb 4a04 d9bb
00000120: ec09 dabb cb77 dabb 3821 dcbb 5fd3 d9bb
00000130: 808b dfbb 6fad d9bb 7b07 d8bb 90f0 dabb
00000140: bb6e dbbb 4fde dbbb ea81 dabb 801b dcbb
00000150: 7c9d d9bb 5d99 d8bb 8c75 dabb e402 dbbb
00000160: ae61 dbbb ac13 dabb 1e0a d6bb 287e d9bb
00000170: 220a d9bb 6a1f dabb c2ac dabb 348c dabb
00000180: 7090 d9bb 2e89 d1bb 9994 9fb7 1f4e 7a36
00000190: 48ec 05b7 d69f d3b6 36c0 f635 f4bc 5837
000001a0: 8b04 8e37 a58d a0b7 7f4b 3a34 d6cb c8b5
000001b0: 31b6 4fb6 a04d b336 b17a fb36 4bc6 a237
000001c0: f45a 2b38 2fee 4536 900d de35 abbf a735
000001d0: c576 0137 bcd4 5037 315b d436 c545 69b7
000001e0: 6e60 8d36 55ef 4836 2886 7336 5a3d e036
000001f0: a45b 7eb5 c2a6 6a37 ac1e e8b7 b643 6c36
00000200: 2a5c 1336 f165 da35 e59f c836 ce13 2737
00000210: c4af 8037 f0f5 cf35 b158 58b7 c4aa 00b6
00000220: 0411 54b5 f90c 7c36 82b9 5b37 2896 1037
00000230: 8996 c738 52e0 8db7 0220 2337 a672 1e37
00000240: 9c73 f436 f686 7537 8b50 b2b7 d228 35b6
00000250: 8d95 2136 f257 d3b4 4fc3 56b5 e87c a6b5
00000260: 3a3e 5e35 2a4e 46b6 0e20 56b6 476f 49b6
00000270: 1d2b 4f36 f6a4 e4b5 d383 25b6 e0c9 42b3
00000280: 1e9d d5b5 c670 1d35 148b 1736 ca3b 9435
00000290: b8b7 d4b3 6890 2336 88d6 15b6 5a08 8835
000002a0: 39e4 69b6 f727 4c36 d137 3236 36a1 09b5
000002b0: a0fd 8736 3ab7 0f36 abdc 3ab6 508c 1db6
000002c0: 4846 0735 b063 0ab6 e3f0 45b6 e315 6b36
000002d0: fbdc 72b5 f319 4fb6 fce2 0eb6 e01e 17b6
000002e0: 2f89 f735 b855 f735 f088 5d34 51b3 38b6
000002f0: b0f1 30b6 4846 f5b5 a9d8 a2b5 607a 18b5
00000300: 9046 8734 66bb f5b4 064d 76b6 cbd7 0fb6
00000310: 1630 01ac b59b 6b2b ec61 ba2b eb07 d22f
00000320: 46d8 dc2e 5489 b22b 437a d1ab 3832 9cab
00000330: 5e0a 57a9 65c5 01ad b550 0c31 e3d6 1431
00000340: d05a 93ab 7801 002a bbc4 262c 2827 de2b
00000350: 18c5 f9ac 0a49 952f b484 a531 45c9 fdab
00000360: dcd2 97ab c3a4 2eac 77f2 0b2c 2438 c42d
00000370: 1341 122c 2b60 1f30 dc51 602a b5a6 e2ab
00000380: d7c0 25ac 8624 2bac 0630 0e2f e6b1 132e
00000390: b785 3630 cd59 37ac 481e a5ab 3c49 5fab
000003a0: 72ab 99ab be29 c4ab 0c5f da30 be2a 1d31
000003b0: a58e 11ac f6ba c5ab bc79 5f2b 7d49 122c
000003c0: 051a ac2e db01 4b32 3182 9832 8de2 282c
000003d0: e922 a2ab 6e3a 0200 fbc5 0200 30b1 0200
000003e0: 0dfd 0200 99be 0200 aaad 0200 abd1 0200
000003f0: 33cf 0200 b7c7 0200 ce86 0200 f0c7 0200
-1.80544e-39 -2.659957e-39 7.73396e-40 7.135747e-39 2.4083514e-38 -3.4080383e-38 -1.976687e-39 -4.6665e-41
-1.10827e-40 -2.30743e-40 -2.49316e-40 -2.3364e-40 -1.25755e-40 -6.8357e-41 -7.0359e-41 -1.44053e-40
-2.32531e-40 -2.5439e-40 -2.53945e-40 -1.61793e-40 -7.1958e-41 -7.3989e-41 -1.44367e-40 -2.48834e-40
-2.61495e-40 -2.63366e-40 -1.53198e-40 -8.2535e-41 -7.342e-41 -1.14105e-40 -2.53687e-40 -2.45976e-40
-2.43659e-40 -1.2609e-40 -8.2008e-41 -1.885921e-39 -5.908394e-39 -6.534279e-39 -4.586122e-39 -2.36581e-40
-9.8891e-41 -4.4473e-41 4.0435958e-38 4.6214375e-38 5.648114e-37 4.0816484e-37 5.501304e-37 3.8347278e-38
2.9164774e-38 -0.0066337385 -0.0066274884 -0.0066665676 -0.0066841543 -0.0066820625 -0.006642032 -0.0066574444
-0.0066274134 -0.006631578 -0.0066766664 -0.006694461 -0.0067753564 -0.006667292 -0.0066360305 -0.0066249617
-0.006636693 -0.006635134 -0.006659176 -0.0066673746 -0.006664351 -0.0067139417 -0.0066422457 -0.0066228257
-0.006654015 -0.0066671125 -0.006717827 -0.006647512 -0.0068220496 -0.0066429893 -0.0065926886 -0.0066815093
-0.0066965497 -0.006709851 -0.006668319 -0.0067171454 -0.006641088 -0.006610079 -0.0066668447 -0.006683694
-0.006694994 -0.006655177 -0.006531968 -0.0066373535 -0.0066235224 -0.006656577 -0.0066734264 -0.0066695455
-0.0066395327 -0.006394527 -1.9023473e-05 3.7298375e-06 -7.982431e-06 -6.3068974e-06 1.8384369e-06 1.2918597e-05
1.6929835e-05 -1.9139445e-05 1.7350065e-07 -1.4960485e-06 -3.0951453e-06 5.3436524e-06 7.494666e-06 1.9404242e-05
4.0854284e-05 2.9493929e-06 1.6544236e-06 1.2498252e-06 7.716652e-06 1.2447297e-05 6.3287084e-06 -1.3904127e-05
4.2133533e-06 2.9941632e-06 3.628791e-06 6.6828625e-06 -9.475573e-07 1.3986313e-05 -2.7670838e-05 3.5206153e-06
2.1958353e-06 1.6271935e-06 5.9790787e-06 9.958587e-06 1.5340636e-05 1.5494279e-06 -1.2895253e-05 -1.9172885e-06
-7.9000915e-07 3.7558477e-06 1.3096609e-05 8.61803e-06 9.517099e-05 -1.6912967e-05 9.7230095e-06 9.4442275e-06
7.2852254e-06 1.4634561e-05 -2.125676e-05 -2.6994862e-06 2.407792e-06 -3.93658e-07 -8.0005424e-07 -1.2404316e-06
8.2791996e-07 -2.9549797e-06 -3.1907143e-06 -3.0016106e-06 3.08705e-06 -1.7035334e-06 -2.4663648e-06 -4.535275e-08
-1.5915464e-06 5.8651165e-07 2.2581708e-06 1.104426e-06 -9.9054375e-08 2.4372948e-06 -2.2327604e-06 1.013522e-06
-3.4852549e-06 3.0421631e-06 2.6556556e-06 -5.127107e-07 4.0528394e-06 2.1415312e-06 -2.7844605e-06 -2.3476496e-06
5.039369e-07 -2.0621628e-06 -2.9495502e-06 3.5030469e-06 -9.0473594e-07 -3.0860508e-06 -2.1291771e-06 -2.2518725e-06
1.844286e-06 1.8427882e-06 2.0632046e-07 -2.7522512e-06 -2.6366724e-06 -1.8274377e-06 -1.2132997e-06 -5.680249e-07
2.519705e-07 -4.5771156e-07 -3.670169e-06 -2.1434269e-06 -1.8358696e-12 8.370486e-13 1.3243274e-12 3.8204404e-10
1.00428596e-10 1.2685777e-12 -1.4884278e-12 -1.1098405e-12 -4.7748582e-14 -7.376631e-12 2.0418558e-09 2.1658983e-09
-1.0470184e-12 1.1369193e-13 2.3699226e-12 1.5784917e-12 -7.0988875e-12 2.715484e-10 4.8172186e-09 -1.8032595e-12
-1.0787721e-12 -2.4818348e-12 1.9887683e-12 2.2307552e-11 2.0783971e-12 5.7980526e-10 1.9923597e-13 -1.6104536e-12
-2.3554958e-12 -2.4320836e-12 1.2931886e-10 3.3581936e-11 6.6401235e-10 -2.6055714e-12 -1.173236e-12 -7.932715e-13
-1.091889e-12 -1.3938223e-12 1.5888602e-09 2.2870803e-09 -2.0684923e-12 -1.4049584e-12 7.9394455e-13 2.0788642e-12
7.8262764e-11 1.1816577e-08 1.7754333e-08 2.3999997e-12 -1.1520482e-12 2.04632e-40 2.54693e-40 2.47234e-40
2.74449e-40 2.52045e-40 2.4597e-40 2.58886e-40 2.58e-40 2.55315e-40 2.3203e-40 2.55395e-40

classifier.bias f4 [10]
00000000: 507b be3f 10ae 22bf 77de d3bd 0e0c 753f
00000010: 9961 9e3f 215d 3bbf 55aa 1cbf bab4 d53e
00000020: 79da 773e f5f1 76bf
1.4881382 -0.6354685 -0.10345166 0.9572152 1.2373534 -0.7318898 -0.61197406 0.41739446
0.24204434 -0.9646295
