clothing_classifier.onnx (onnx, 52725 bytes, 6 tensors)

conv1.weight f4 [8, 1, 3, 3]
000000 3c 33 f4 bd 26 f6 3b be 39 c7 a2 3e 00 d0 e8 38
       -0.11923835 -0.18355617 0.3179262 0.00011101365
000010 47 b1 8c be c9 1b a5 3e 8e 59 11 be 80 6c c8 3d
       -0.27479002 0.3224776 -0.14194319 0.0978632
000020 86 bb 2f 3e 16 e9 b3 bd 4e d4 00 be 40 a3 df bb
       0.17161378 -0.08784692 -0.12580988 -0.006824881
000030 34 c7 a5 bd c8 91 27 3d 50 d5 c2 bc 20 c9 1e 3e
       -0.080946356 0.040910512 -0.023783356 0.1550641
000040 0a 83 44 3e c0 57 e2 bd 6c eb be 3d 00 45 93 3a
       0.19190612 -0.11051893 0.09322247 0.0011235774
000050 db b5 4f be 46 dd 57 3e 6f 88 90 3e 40 d4 10 3d
       -0.20284216 0.21080503 0.2822909 0.035358667
000060 c4 65 83 3d ec 45 a6 be 1b 9c 3d be d2 3a 61 3e
       0.06415895 -0.3247522 -0.18516581 0.21995094
000070 21 c1 92 3e c2 3f 47 3e c0 23 ee bd 50 a3 ca 3c
       0.2866297 0.19457915 -0.116279125 0.024736077
000080 80 09 8d bd 00 06 dd bd 71 0b 8c 3e 80 a8 0d bd
       -0.068865776 -0.1079216 0.2735248 -0.034584522
000090 58 42 15 bd 88 69 34 be d6 f7 27 be 45 12 89 3e
       -0.036440223 -0.17618382 -0.16403136 0.2677175
0000a0 4b 86 78 be fc c3 f2 3d 76 5a f5 bd 7b df 54 be
       -0.24269979 0.11853787 -0.11980145 -0.20788376
0000b0 14 93 ff 3d eb 2c 8d be d6 1f 6a be 0b d4 40 be
       0.12479225 -0.27573332 -0.22863707 -0.18830888
0000c0 66 a7 7e 3e 40 84 10 be 14 dd 88 bd ba ef 58 3e
       0.24868545 -0.1411295 -0.06682792 0.21185198
0000d0 0c 83 c7 3d 22 cd 7b 3e a3 12 0b be 44 e7 98 3d
       0.09741792 0.2458997 -0.13581328 0.074659854
0000e0 48 26 aa be a4 ef 84 3d 73 ef 4e be 8c d3 c3 bd
       -0.3323233 0.0649102 -0.2020853 -0.09561834
0000f0 00 38 ee bd 82 b7 7f 3e cb 4e 7d be 7c df dd bd
       -0.11631775 0.24972346 -0.24737088 -0.10833642
000100 f4 66 88 3d c3 39 0d be eb f6 3a be 30 e3 c6 3d
       0.06660262 -0.13791566 -0.18258254 0.09711301
000110 ac 58 f0 3d 9e 9a 15 be dd 3b 81 3e f8 a1 0e be
       0.11735663 -0.14609763 0.25240985 -0.13928974

conv1.bias f4 [8]
000000 31 ad a1 3e c2 07 38 3e 1d 1c 8a 3e 60 68 65 bd
       0.31577447 0.1797171 0.26974574 -0.056007743
000010 eb 82 9d 3e 84 39 ba 3d 5c 2c 9b bd 12 c5 84 be
       0.30763945 0.090930015 -0.0757682 -0.25931603

conv2.weight f4 [16, 8, 3, 3]
000000 67 d6 a6 3d e6 a1 ed bd 35 13 81 3d ec 12 00 bd
       0.08146363 -0.11603145 0.063024916 -0.031268045
000010 6c f9 c1 bd 64 0f 6b bd 19 7b b5 3d 31 2a e9 bd
       -0.094714016 -0.057387725 0.0886137 -0.113850005
000020 32 02 05 bd 0e ba 64 3d 04 1d bd bd d4 fd 8f bc
       -0.032472797 0.055841498 -0.0923405 -0.01757709
000030 45 12 b6 3d e3 1f 7e bd 53 6a df 3d 2c 93 05 bd
       0.088902034 -0.06204213 0.109089516 -0.032611057
000040 56 f9 45 3d 9a 00 53 3d ea db 8f bd 66 9b 91 bd
       0.04833349 0.051514246 -0.07024367 -0.07109718
000050 56 86 28 3d 03 98 d2 3d 10 46 99 bd 8d 8f c1 3d
       0.041143738 0.102829 -0.074840665 0.09451208
000060 34 24 69 bd 24 82 cc 3c 95 57 87 3d 8c 44 83 bc
       -0.05691929 0.0249644 0.06608502 -0.016023897
000070 6c 93 6e bd 90 74 9a bb 9e 1c 09 bd 0c 42 00 bd
       -0.05824606 -0.0047136024 -0.033474557 -0.031312987
000080 95 ff ed 3d 8a 3e cf bd ab 40 d0 3d 66 2c 48 3d
       0.11621014 -0.1011935 0.101685844 0.048870467
000090 d5 54 9e 3d c8 e3 ec bc 90 77 24 bc b4 79 e1 bd
       0.07731024 -0.028917208 -0.010038272 -0.11009541
0000a0 9f 97 69 bd 52 96 c7 bd c8 49 ab bd b6 9d 55 3d
       -0.057029363 -0.09745468 -0.08363682 0.052152358
0000b0 74 d4 ec 3c fc 3e c0 bc cb 56 ba 3d 3a eb ba bd
       0.0289099 -0.023467533 0.09098586 -0.09126897
0000c0 65 d9 83 3d 10 9b c7 3b 40 03 35 bc 47 c3 e3 3d
       0.06437949 0.006091483 -0.011048138 0.111212306
0000d0 78 77 0b bd 78 50 69 bd 59 bc 80 bd 9a 6a 2b 3d
       -0.03404948 -0.056961507 -0.062859245 0.04184971
0000e0 00 66 27 3b 71 bb 93 3d 1a 3e 23 bd 5c d6 e6 bc
       0.0025542974 0.07213486 -0.039854147 -0.028178386
0000f0 6c e9 d9 bd 8b db c5 3d 63 bf 91 3d 25 65 d4 3d
       -0.10640225 0.09661015 0.07116582 0.10370854
000100 6a 3b 9a bd e8 07 72 3c 5f 40 a9 3d 00 4d e7 ba
       -0.075308636 0.014772393 0.08264231 -0.0017646849
000110 36 bb 63 3d bc 0c 9d bc e0 b6 2c bd c2 9c 17 3d
       0.05559846 -0.019171111 -0.04216659 0.03701473
000120 e6 05 15 3d 06 2a 4d 3d 72 c1 14 bd 7e 0c ad bd
       0.03638258 0.050088905 -0.036317296 -0.08449648
000130 18 13 29 3c 98 0e c7 bc d0 a8 9d bb 70 dd dc bd
       0.010319494 -0.024298951 -0.004811384 -0.10784423
000140 79 a9 83 3d 84 cc 8a bd eb c2 ed bd 45 56 d0 3d
       0.06428809 -0.067772895 -0.11609443 0.101727046
000150 64 67 a9 bc 9b ac e1 bd b5 cf b2 bd e9 32 9b 3d
       -0.020679183 -0.1101925 -0.08731023 0.0757807
000160 3f 2f e0 bd 6e b1 cd bd 60 94 20 bc 35 52 9b 3d
       -0.109465115 -0.10043608 -0.009801 0.07584039
000170 c2 f1 7f 3d c5 2b cf bd 96 28 66 bd 28 98 3b bd
       0.062486418 -0.1011577 -0.05619105 -0.045799404
000180 7a 76 a9 bd 06 d2 6d 3d e7 1d bb bd 20 11 99 bd
       -0.08274551 0.058061622 -0.09136563 -0.074739695
000190 4f ee e1 3d 9b 94 bd bd 82 34 47 3d a2 6a 21 3d
       0.11031782 -0.0925686 0.04863406 0.039408334
0001a0 4c 98 b4 bc f3 fd a6 3d 01 bb 81 3d 2a 19 0a 3d
       -0.022045277 0.08153906 0.06334496 0.033715405
0001b0 aa d0 cb bd 4f 3f a5 3d 3b 5f ef bd dd ac 94 bd
       -0.09951909 0.08068716 -0.11688086 -0.072595336
0001c0 92 2a c0 bd 26 1c ee bd 32 8d 04 3d 38 7c bd bd
       -0.0938312 -0.11626463 0.032361217 -0.092522085
0001d0 6e a0 4d 3d 36 4b 3a bd 4f 7a cd 3d c5 7f 8d 3d
       0.050201826 -0.045481883 0.10033094 0.06909136
0001e0 72 05 02 bd 83 38 ea 3d 38 c1 b8 bc 51 b2 a6 3d
       -0.031743474 0.1143656 -0.022553071 0.0813948
0001f0 a0 0b 6f bc e6 57 61 3d e9 5c c6 3d fb 4a b4 3d
       -0.014590174 0.055015467 0.0968569 0.08803364
000200 d0 56 2e bc 34 25 5b bd 15 3a c8 3d 59 34 c3 3d
       -0.010640815 -0.053502277 0.09776703 0.09531469
000210 52 2a 75 3d ac ce f9 3c cb 55 9d 3d 14 30 e4 3c
       0.059854813 0.030494057 0.07682379 0.027854957
000220 64 50 ba 3c 9f 85 ce 3d c4 ef 9b bc 1c 87 83 3c
       0.022743411 0.1008408 -0.019035228 0.016055636
000230 70 c9 45 bc b4 63 a6 bc be 75 ce bd 54 3a ae 3c
       -0.012071952 -0.020311214 -0.10081051 0.021268047
000240 a2 b8 77 3d a0 4b 82 bd 64 03 91 3c 88 fa 72 bc
       0.060478814 -0.063620806 0.017701812 -0.014830239
000250 bd f1 a2 bd 24 d9 88 3c 6d 8e 8a 3d fc 06 0d bd
       -0.07956264 0.016705103 0.06765447 -0.03443049
000260 f0 b9 3c bd 60 ed dc bb ed 2f d9 3d f2 32 55 3d
       -0.04607576 -0.0067421645 0.10604844 0.05205054
000270 b4 f2 98 bd 76 53 95 bd f7 d1 e2 bd 26 01 2c 3d
       -0.07468167 -0.072913095 -0.11075204 0.041993283
000280 6a 2e 17 bd 16 b2 b1 bd fc b3 a9 bd 26 b2 74 bd
       -0.0369095 -0.08676545 -0.082862824 -0.059740208
000290 62 e3 c1 bd 24 c8 d0 3c af f3 91 bd 05 b5 ec bd
       -0.09467198 0.02548606 -0.07126557 -0.11557964
0002a0 d5 51 a5 3d 39 29 ef bd c2 75 e6 bd 0d d0 d7 3d
       0.08072249 -0.116777845 -0.11252929 0.105377294
0002b0 56 29 96 bd 86 1e 3a 3d 58 65 59 bd ed 08 d3 3d
       -0.07332103 0.045439266 -0.053075165 0.10304437
0002c0 33 98 b9 3d 61 77 78 bd 30 a7 42 bd 0e 72 52 3d
       0.09062233 -0.060660724 -0.047522724 0.051378302
0002d0 3c 30 da bd b7 15 c1 3d 68 34 1c 3c d8 42 38 3c
       -0.10653731 0.0942797 0.009533979 0.011246406
0002e0 90 42 2b bd 70 96 fb bb 41 40 90 3d b6 2b 0e 3d
       -0.041811526 -0.0076778457 0.070435055 0.034709655
0002f0 5a b6 55 3d 08 b8 7b 3c 2d 25 9d bd 9b 5d 90 bd
       0.052175857 0.015363701 -0.07673106 -0.07049104
000300 7e f3 ac bd 71 6a a4 3d 62 37 e3 bd 0a bb 0d 3d
       -0.0844488 0.080281146 -0.11094548 0.034602202
000310 22 60 38 3d 55 ee f0 3d aa a8 61 3d 7c cc f6 3c
       0.045013554 0.11764208 0.05509249 0.030126803
000320 61 ee dd 3d b1 2a d0 bd 09 ca b7 3d d0 04 5a bc
       0.10836483 -0.10164393 0.08974082 -0.013306811
000330 0a cd c3 bd 96 eb 2d 3d 25 88 d5 3d 9e af 3b 3d
       -0.095605925 0.042461 0.10426358 0.04582178
000340 40 23 8d bd ba f7 c7 bd ac 83 dd bc 2c 9e 20 bd
       -0.06891489 -0.09764047 -0.027040325 -0.039213344
000350 88 a5 cd bd 4d eb 6a bd b5 a0 90 bd 2e f9 7c 3d
       -0.10041338 -0.057353307 -0.070619024 0.061761074
000360 b8 4a 08 bc 82 e1 3f 3d c0 39 a5 ba 80 35 b3 ba
       -0.008318596 0.04684592 -0.0012605712 -0.001367256
000370 2d 79 b9 3d c0 b2 ed 3a d2 62 4e 3d f2 a5 81 bd
       0.090563156 0.0018134937 0.05038721 -0.0633048
000380 d9 ab f0 bd 7a 30 34 3d 02 aa d1 bd dc 56 9e 3c
       -0.11751527 0.043991543 -0.102375045 0.019328527
000390 c0 df 02 bd 1e 0e 00 3d c4 d0 aa 3c 42 5f af bd
       -0.031951666 0.031263463 0.0208515 -0.08563091
0003a0 d4 ea c3 3c a9 6c c3 3d 1c e4 89 bd ec 6e cd 3c
       0.023915686 0.0954221 -0.067329615 0.025077306
0003b0 41 72 df 3d 50 11 f4 bc 90 41 b4 bd 25 bf 86 3d
       0.10910464 -0.029793411 -0.088015676 0.06579427
0003c0 26 04 1b 3d 21 93 b8 3d c9 57 9f 3d fe ae 52 3d
       0.037845753 0.090124376 0.077804156 0.051436417
0003d0 10 00 dd bc 7d 6d 8e 3d a6 88 66 3d f0 33 ed bd
       -0.026977569 0.06954477 0.05628266 -0.11582172
0003e0 e4 69 2f bd ab 78 b6 3d 8e 74 72 3d a4 56 e1 3c
       -0.042825595 0.08909734 0.059193186 0.027507134
0003f0 69 93 8b bd 82 19 d8 bd d8 df 69 3c 5b 35 8a 3d
       -0.06815226 -0.1055174 0.01427456 0.06748458

conv2.bias f4 [16]
000000 cf 93 88 bd d3 b2 de 3d ca d6 2f bd 05 c0 d5 bd
       -0.06668817 0.10873952 -0.04292945 -0.104370154
000010 75 7f 9e 3d 62 6e c2 bd d0 36 48 bd c3 0e 6c bd
       0.07739154 -0.0949371 -0.0488804 -0.057631265
000020 c0 9d b2 3a 51 45 dc 3d 24 68 a8 3c 40 ff 43 bd
       0.0013627335 0.107554086 0.02055747 -0.047850847
000030 bc 27 a4 bc 90 6a c9 3b 55 1d d4 3d 96 08 99 bd
       -0.020038478 0.0061467364 0.10357157 -0.07472341

classifier.weight f4 [10, 784]
000000 98 f3 6d 3c d1 fb 0e 3d 51 ed 05 3d e7 27 90 bc
       0.014523409 0.03490812 0.032697026 -0.017597152
000010 53 ca 0e 3d 40 d4 8e 3a 9e f1 c7 3c 72 5f 0a bd
       0.03486092 0.0010896996 0.024407204 -0.03378243
000020 74 9b 49 3c b6 da a6 3c 48 9a f4 3b b0 45 aa bb
       0.012305129 0.020367961 0.007464681 -0.0051962957
000030 56 92 c3 3c 40 22 07 3c 60 5b fa 3a e0 25 de ba
       0.02387349 0.008247912 0.0019100718 -0.0016948543
000040 20 d4 ec 3a 80 31 75 3c 3a 0e f4 bc fe 4a 92 3c
       0.0018068589 0.014965415 -0.02979194 0.017858025
000050 e4 0e 43 3c 44 8c 2a 3c 18 41 21 bc 5e f6 ec 3c
       0.011905406 0.0104094185 -0.00984218 0.02892607
000060 dc d5 9c bc 22 1f f2 3c 75 41 e3 bc 96 d1 a8 3c
       -0.019144945 0.02955586 -0.027741173 0.02060775
000070 8e 97 65 bc 36 ce e8 3c 73 a1 da bc 25 8d 0e 3d
       -0.014013184 0.028418642 -0.026688313 0.034802575
000080 e0 70 65 3b 6f 3f 03 3d 30 63 bf 3b 3e 1d b7 bc
       0.0035009906 0.032042917 0.0058406815 -0.022352811
000090 c5 2c 97 bc 75 9f ed bc e8 b1 59 3c 28 c2 83 3c
       -0.018453965 -0.0290067 0.013287045 0.016083792
0000a0 8f 87 04 3d 20 fc 4d 3c 70 da a2 bb a0 03 bd ba
       0.03235584 0.012572318 -0.0049698874 -0.0014420636
0000b0 54 f3 1b 3c 05 71 fc bc 67 2d 81 bc 5e 46 e2 bc
       0.009518463 -0.03081561 -0.01576872 -0.027621444
0000c0 00 03 c0 bb 9c f7 a4 bb 2c a7 cb bc 1c 3d 35 3c
       -0.0058597326 -0.0050344 -0.024859987 0.011061933
0000d0 41 66 ef bc e8 55 ef bc 5c d0 d5 3c 5d f9 00 bd
       -0.029223563 -0.029215768 0.02610033 -0.03148781
0000e0 bc 3c 68 3c 8a 92 b7 bc c0 77 55 3c 26 44 73 bc
       0.014174636 -0.022408742 0.013029039 -0.014847791
0000f0 ea b5 6a bc 48 8f d0 bb 80 67 31 bc 20 4a 2f bb
       -0.014325598 -0.0063647367 -0.010827899 -0.0026747063
000100 a8 e5 c7 3c fc 2f 0e bd 15 4e fe bc 40 6c dc 3b
       0.0244015 -0.03471373 -0.031043092 0.0067267716
000110 c8 cf e9 3b 30 85 7a 3c 54 8c f4 bb 1c d0 ba bc
       0.007135365 0.015290543 -0.0074630175 -0.022804312
000120 40 c1 82 3c a4 dc dd bb 00 fa 0a bd 61 3d e5 bc
       0.01596129 -0.006770687 -0.033929825 -0.02798337
000130 02 cf de 3c 4c 95 dd bc 30 0f d9 3c 87 86 09 bd
       0.027198318 -0.02704873 0.0264965 -0.03357556
000140 be 39 f1 3c 36 dc f7 3c 3f e3 0d 3d 1b e9 00 3d
       0.029446479 0.030256372 0.034640547 0.031472307
000150 68 86 b2 3b a0 38 03 bb 78 c0 b9 3c 1c 42 6c 3c
       0.0054481514 -0.0020022765 0.022674784 0.014420059
000160 4e f4 ee 3c cc 22 d8 bc 25 6e 0c bd ce 02 1e bc
       0.029169228 -0.02638378 -0.03428473 -0.009644223
000170 be e4 a3 3c a8 13 ec 3b a6 fc df 3c a2 a4 ab 3c
       0.020006534 0.0072044916 0.027342152 0.020952526
000180 8a dd ad bc 0f b3 0e bd 00 8d 8a 3c 55 ed e3 bc
       -0.021223802 -0.034838732 0.016912937 -0.02782313
000190 80 08 15 3c 48 37 50 3c 63 c0 fa bc ee 6e 7c bc
       0.009096265 0.012708493 -0.030609315 -0.015407307
0001a0 43 ac fc bc 2c d4 c6 bc 3c c4 fd bc e0 39 97 3c
       -0.03084386 -0.024271093 -0.03097736 0.018460214
0001b0 5c 0e f7 bb 80 3f 68 3a 3e b3 f5 3c 5c 5a 5e 3c
       -0.0075395536 0.000885956 0.029992696 0.013571348
0001c0 c4 85 05 bc 27 1d 99 bc de 11 e3 3c 60 e1 9a ba
       -0.008149568 -0.018690659 0.02771848 -0.0011816435
0001d0 88 ed cb 3b 38 eb d3 3c 65 e3 8d bc 10 41 a4 3b
       0.0062233843 0.025868997 -0.017320344 0.005012639
0001e0 fc 2a 36 bc 80 04 ab 3c 2c 19 01 bd 20 b5 aa 3c
       -0.011118647 0.02087617 -0.031518146 0.02083832
0001f0 48 86 a6 bc 51 97 0c 3d 84 40 0d 3c 72 a0 dc 3c
       -0.020327702 0.034323994 0.008621339 0.026931975
000200 c0 1d f2 3a b2 87 cc 3c 26 ff 71 bc 20 9d f1 ba
       0.0018472001 0.024967048 -0.014770305 -0.0018433668
000210 60 b3 93 ba 36 f4 95 3c 23 3f eb bc 6e 39 56 bc
       -0.0011268668 0.018304925 -0.02871663 -0.013075216
000220 6e 73 a4 bc f2 1f fa 3c 20 16 d5 3a 8d cd 11 3d
       -0.020074572 0.03053281 0.0016257204 0.03559642
000230 40 37 b0 3b e0 44 7e 3b d8 54 21 3c da 0b d0 bc
       0.00537768 0.0038798377 0.0098468885 -0.025396276
000240 a3 4e dc bc b0 d3 48 3b 4a 7a f9 bc 2e fe f2 bc
       -0.026892966 0.0030643754 -0.03045382 -0.029662218
000250 72 1c e7 3c fc 3e 6e 3c 8e 0e 52 bc 20 3c d0 3c
       0.028211806 0.014541384 -0.012820853 0.025419295
000260 1f eb 02 3d 60 37 60 bb b9 b9 07 3d e9 76 08 3d
       0.03196251 -0.0034212694 0.033136103 0.033316527
000270 08 6b 15 3c 80 9e a5 b9 9c 34 ee bc 75 51 e1 bc
       0.0091197565 -0.00031589344 -0.02907782 -0.027504662
000280 68 fc b7 bc c0 4a a9 bb 3c 2c 48 3c 5c 66 9b bb
       -0.022459224 -0.0051663816 0.012217578 -0.004742427
000290 b8 c5 ff bc 6c 33 93 bc fc 52 71 3c e8 e2 a4 3c
       -0.03122221 -0.017968856 0.014729258 0.020127729
0002a0 fe e0 ec bc 27 3b 82 bc d6 da f9 3c 40 72 ba 3c
       -0.028915878 -0.015897347 0.030499857 0.022759557
0002b0 76 65 c5 3c 67 6a 87 bc 1c 6c 6b bc d2 ca 08 bc
       0.024096232 -0.016530229 -0.014369037 -0.008349137
0002c0 f2 c3 f7 3c 4f 84 0e 3d 43 48 10 bd a0 03 53 bb
       0.030244801 0.034794148 -0.035225164 -0.0032198206
0002d0 e4 34 8a 3c 1a 4f f4 3c e7 d1 0b bd c6 8c f6 3c
       0.016870923 0.029822875 -0.034135725 0.030096423
0002e0 61 ce 0c 3d 7e 01 d7 bc 8c 60 97 3c 30 cb f1 3b
       0.034376506 -0.026245829 0.018478654 0.007378958
0002f0 58 23 aa bc 5e e6 9b bc 68 ef 91 3b 60 9d 66 3b
       -0.020768806 -0.019030746 0.0044535883 0.0035189018
000300 77 15 12 3d 46 bd b1 3c 24 d2 bb bb f0 30 81 bb
       0.035665 0.021696698 -0.005731838 -0.0039426014
000310 db d6 0d bd 9e 89 8c 3c c0 76 5a 3a a4 8e 48 3c
       -0.03462873 0.017155465 0.0008333735 0.012241039
000320 4d bd 0b bd 3c d9 c1 bc c4 ef 06 bd b8 cd b2 bb
       -0.03411608 -0.023663156 -0.032943502 -0.0054566525
000330 d9 bf 06 3d 00 03 60 bc 62 25 bf 3c 28 58 87 3c
       0.032897804 -0.01367259 0.023333255 0.016521528
000340 1c fa ca 3c a9 b2 02 3d 0e 65 96 3c 45 97 ee bc
       0.024777465 0.031908665 0.018358734 -0.029124865
000350 54 96 ff bb bc 67 c0 bc 20 8a 09 bc b8 25 d2 bb
       -0.007799903 -0.023486964 -0.008394748 -0.006413188
000360 b8 65 a9 3c 2a 71 24 bc 70 d4 0b 3c 43 3d 06 3d
       0.020678386 -0.010036746 0.008534536 0.032773267
000370 64 71 44 3c 62 3a 9a 3c 40 46 09 3c 00 3c bf ba
       0.011989925 0.018826667 0.008378565 -0.0014590025
000380 53 8b e3 bc 42 9a 0b bd f4 1b 31 3c 9c 69 e9 bc
       -0.027776396 -0.03408266 0.010809887 -0.028492741
000390 af 8b 0b bd 85 1c 05 bd 99 99 05 3d a0 2a 8c 3c
       -0.03406876 -0.0324979 0.032617185 0.017110169
0003a0 c0 dd 20 bc 32 5f b7 3c 58 a4 01 3c 50 32 0b bb
       -0.009818494 0.02238426 0.007912718 -0.0021239705
0003b0 8f a3 0d 3d 3c d2 cd bc 00 ad db bb 3e 9b c7 bc
       0.03457981 -0.025124662 -0.006703973 -0.024366017
0003c0 50 fc bb 3c f7 bd 00 3d 10 1e 7b bb 80 1b 73 3b
       0.02294746 0.031431165 -0.003831748 0.0037095249
0003d0 30 c1 d0 3b c3 d7 f6 bc b3 bd d9 bc 9a 9e eb bc
       0.006370686 -0.03013218 -0.026579713 -0.02876215
0003e0 ce 19 95 bc 88 aa bf bb ce d0 35 bc e8 b5 aa bc
       -0.018200781 -0.0058491863 -0.011097146 -0.020838693
0003f0 e2 99 a7 3c 20 f2 12 3b a6 a0 f3 3c 50 82 10 bd
       0.02045912 0.002242215 0.02973969 -0.035280526

classifier.bias f4 [10]
000000 00 3e 9b 3b a2 7b 8c 3c 80 68 49 ba ee 8c b9 bc
       0.0047376156 0.017148796 -0.0007683113 -0.022650208
000010 7c ea 97 bc f6 66 eb 3c a0 27 1d 3b 65 36 10 bd
       -0.018544428 0.028735619 0.0023979917 -0.035208125
000020 50 9b 49 3b fa 24 e4 bc
       0.003076274 -0.027849663
