clothing_classifier.onnx (onnx, 37714 bytes, 6 tensors)

conv1.weight f4 [8, 1, 3, 3]
0.065381125 0.18250695 0.19863205 0.39373642 0.10244135 0.010250202 -0.16155447 0.26474518
0.40202248 -0.2705906 0.27247015 0.030732438 0.28775135 0.19160712 -0.37510756 0.58093435
-0.14219315 -0.5807507 0.35892537 -0.23228931 0.045790896 -0.00510987 -0.38390186 0.2718344
0.026862768 -0.49893317 0.45987737 -0.9211938 -0.45414847 -0.07122165 -0.81431305 -0.95941275
0.06433653 -0.45573267 -0.11324302 0.36604998 -0.13008863 0.12547539 0.43060678 -0.35902777
0.43385565 0.6322837 0.20110685 0.46951443 0.19860888 0.0365389 0.30517125 0.33370024
0.2296717 -0.04368622 -0.10556291 -0.15134008 0.38101387 -0.36236367 -0.03044722 -0.080095485
0.38948947 0.44897625 0.43796283 0.06615381 0.020322973 0.087187454 -0.08587067 -0.13235652
0.33103532 -0.16469374 -0.258411 0.16138817 0.67646694 -0.32378188 -0.29286614 0.7124771
00000000: 8ae6 853d 1ae3 3a3e 3366 4b3e d297 c93e
00000010: c5cc d13d 77f0 273c 896e 25be ae8c 873e
00000020: e4d5 cd3e da8a 8abe 3581 8b3e 98c2 fb3c
00000030: 2554 933e a834 443e 190e c0be 1db8 143f
00000040: 159b 11be 14ac 14bf 11c5 b73e 40dd 6dbe
00000050: 3c8f 3b3d b270 a7bb c98e c4be e12d 8b3e
00000060: 4f0f dc3c 2b74 ffbe 0c75 eb3e 5bd3 6bbf
00000070: 2686 e8be a8dc 91bd d276 50bf 139c 75bf
00000080: dfc2 833d cb55 e9be f5eb e7bd e76a bb3e
00000090: f435 05be 9f7c 003e 7e78 dc3e 7dd2 b7be
000000a0: 5422 de3e 58dd 213f f4ee 4d3e 3264 f03e
000000b0: 2060 4b3e d0a9 153d 683f 9c3e c2da aa3e
000000c0: 0f2f 6b3e 52f0 32bd 5e31 d8bd e5f8 1abe
000000d0: 4014 c33e bb87 b9be 736c f9bc 1a09 a4bd
000000e0: 2a6b c73e 37e0 e53e aa3c e03e a67b 873d
000000f0: 5d7c a63c 568f b23d f6dc afbd 7888 07be
00000100: 767d a93e 7aa5 28be 724e 84be f142 253e
00000110: f02c 2d3f bdc6 a5be 8df2 95be e664 363f

conv1.bias f4 [8]
-0.18033102 0.010267942 -0.015933543 0.33601207 0.0006348182 -0.007898245 -0.00744935 0.062288307
00000000: b2a8 38be df3a 283c 1087 82bc c609 ac3e
00000010: ee69 263a a467 01bc ad19 f4bb 0622 7f3d

conv2.weight f4 [16, 8, 3, 3]
-0.1548205 -0.07896127 -0.14930864 -0.087144114 -0.2121397 -0.034509536 -0.11256925 -0.058082
-0.06793894 0.044360492 0.18302532 -0.15952696 0.044882506 -0.024273213 -0.11323733 -0.03194506
-0.031597152 -0.12277955 0.09098458 0.006882161 -0.07022301 -0.0070421374 -0.044490084 -0.17383933
-0.2011999 0.0667169 -0.15455607 0.29674467 -0.1356227 -0.0023584329 0.020837877 -0.28501385
-0.07374988 0.08552977 -0.22536354 -0.060999848 0.073000096 0.10074601 -0.07698865 0.09135118
0.021132052 0.01255278 0.11336511 0.055825096 -0.020551281 -0.12237304 0.047186255 -0.11117411
-0.0044227275 0.02348797 0.07394886 -0.009547919 0.06677465 -0.050855897 -0.0055729835 0.0903732
-0.01739035 -0.008278945 -0.1683081 0.097928576 -0.05906454 -0.03793363 -0.0105599435 0.075930096
0.11390284 0.022517977 0.05358808 0.087659866 0.11812051 -0.085406676 -0.014579615 0.027354283
0.101379745 -0.2928584 -0.29173392 0.12916476 -0.00039370666 -0.07142252 0.23326392 0.08034799
0.12673634 -0.13952912 -0.060019683 -0.011102208 -0.13590696 -0.065050066 -0.05257676 -0.13384353
0.095329545 -0.10993334 -0.119952686 -0.33390844 -0.3197902 0.14114927 -0.48586434 -0.4987931
0.33388665 -0.34934324 -0.32342762 -0.092580214 0.023101594 0.3854919 -0.053405255 -0.22412094
-0.031708155 -0.0607639 -0.14288473 -0.07302132 0.11804715 -0.20625757 -0.15336813 0.27729788
0.056196697 -0.34082 0.16258934 0.100386634 0.0613428 -0.084685974 -0.15439568 -0.21107753
0.26359114 0.04816508 -0.32636017 0.02801461 -0.007512532 0.056690663 0.04973118 -0.029071841
-0.26851058 0.13250673 0.008031839 -0.3140486 -0.017040176 0.113844864 0.093150005 0.24617676
-0.27384514 -0.2755278 0.2659073 0.03449235 -0.20886853 0.44187543 0.20977011 0.046888
-0.09520007 -0.063666224 -0.032633096 -0.05800907 0.016183868 -0.012480009 0.055319306 -0.021509947
0.012629731 -0.06749205 0.26133022 -0.09306603 -0.11466874 0.40541434 -0.056607228 0.20031168
0.19177864 -0.16996737 0.12857498 0.0709334 -0.022222543 0.08471537 0.077671856 0.07411022
-0.042869903 0.064683236 -0.044190817 0.16223623 0.009388248 0.03474882 0.12508352 -0.14082934
-0.049853254 0.08276156 -0.29368988 -0.05376576 -0.0027676236 -0.15093435 -0.04184628 0.04528368
-0.042857643 0.09527184 0.18078448 0.024297081 0.13205172 -0.1850226 -0.13755867 -0.037626978
0.030464614 0.1753432 0.053572316 0.071355805 0.026082987 -0.065450504 -0.16710445 -0.13809249
-0.01401975 -0.1372858 -0.09525493 0.098380774 0.031668596 0.09823761 -0.044071753 0.08502171
0.04807894 0.14182292 -0.027267572 -0.106045805 0.1208687 -0.03176458 -0.12432579 0.15111662
-0.14306307 -0.024560895 -0.06959127 0.067489356 -0.030115457 -0.16890901 0.1141573 -0.02357558
0.10114057 -0.14398775 0.21458568 -0.10170012 0.009649224 0.3388752 -0.099755086 -0.15702797
0.20565435 -0.4158304 -0.15444696 -0.14062928 0.27970728 -0.16189566 -0.21280539 0.51042086
-0.06374089 -0.09737497 0.43109 0.037907086 -0.084213845 0.1250177 0.2866212 0.14133783
0.5277367 0.22764023 -0.032512058 0.2775346 -0.05275759 0.014018614 -0.10442775 0.08798603
00000000: 4489 1ebe 72b6 a1bd 5de4 18be 9d78 b2bd
00000010: 263b 59be df59 0dbd b58a e6bd 64e7 6dbd
00000020: 9223 8bbd 59b3 353d fd6a 3b3e 095b 23be
00000030: b8d6 373d 9ed8 c6bc f9e8 e7bd d3d8 02bd
00000040: 046c 01bd d873 fbbd 2056 ba3d c083 e13b
00000050: 15d1 8fbd bbc1 e6bb 3c3b 36bd f002 32be
00000060: 5907 4ebe dfa2 883d f243 1ebe ebee 973e
00000070: ade0 0abe f08f 1abb 32b4 aa3c 56ed 91be
00000080: 2d0a 97bd 3b2a af3d b3c5 66be fada 79bd
00000090: 1381 953d ed53 ce3d 3aac 9dbd 5416 bb3d
000000a0: 201d ad3c 2daa 4d3c f72b e83d dba8 643d
000000b0: 295b a8bc b79e fabd 6046 413d 40af e3bd
000000c0: 87ec 90bb d869 c03c 8072 973d e06e 1cbc
000000d0: 26c1 883d 464e 50bd 939d b6bb 9615 b93d
000000e0: 3576 8ebc 6aa4 07bc f558 2cbe c78e c83d
000000f0: a9ed 71bd 4b60 1bbd 9d03 2dbc 3d81 9b3d
00000100: e445 e93d 9f77 b83c 2d7f 5b3d 0487 b33d
00000110: 2ae9 f13d b2e9 aebd 56df 6ebc 1716 e03c
00000120: 2fa0 cf3d 89f1 95be 265e 95be c443 043e
00000130: 6a6a ceb9 f845 92bd bddc 6e3e 7d8d a43d
00000140: 2cc7 013e b9e0 0ebe 33d7 75bd 09e6 35bc
00000150: 322b 0bbe f838 85bd bb5a 57bd 470e 09be
00000160: 233c c33d bb24 e1bd c1a9 f5bd 0cf6 aabe
00000170: 8bbb a3be 6f89 103e 36c3 f8be cf61 ffbe
00000180: 31f3 aa3e 1edd b2be 4e98 a5be b29a bdbd
00000190: 8e3f bd3c 325f c53e 78bf 5abd f67f 65be
000001a0: 69e0 01bd 91e3 78bd 6050 12be 348c 95bd
000001b0: b4c2 f13d 2f35 53be 890c 1dbe fdf9 8d3e
000001c0: 822e 663d f67f aebe d27d 263e 8297 cd3d
000001d0: 9642 7b3d d76f adbd e719 1ebe b524 58be
000001e0: 6bf5 863e bf48 453d ae18 a7be e57e e53c
000001f0: b02b f6bb 7834 683d ecb2 4b3d 1228 eebc
00000200: 387a 89be d8af 073e f997 033c faca a0be
00000210: d797 8bbc 7f27 e93d 6ec5 be3d c315 7c3e
00000220: 6e35 8cbe fb11 8dbe 0025 883e da47 0d3d
00000230: a2e1 55be 7f3d e23e facd 563e a20d 403d
00000240: 41f8 c2bd 7063 82bd 48aa 05bd eb9a 6dbd
00000250: 0894 843c f478 4cbc 7f96 623d a135 b0bc
00000260: eeec 4e3c 4639 8abd 13cd 853e 6799 bebd
00000270: 72d7 eabd 7892 cf3e fbdc 67bd 811e 4d3e
00000280: 9f61 443e ed0b 2ebe 29a9 033e 8845 913d
00000290: 0d0c b6bc 407f ad3d 6c12 9f3d 19c7 973d
000002a0: 5a98 2fbd a578 843d 6e01 35bd 4121 263e
000002b0: 2bd1 193c c754 0e3d e515 003e 9135 10be
000002c0: ed32 4cbd e57e a93d 855e 96be 7c39 5cbd
000002d0: 0561 35bb 898e 1abe 0167 2bbd 617b 393d
000002e0: 7f8b 2fbd e21d c33d 911f 393e ac0a c73c
000002f0: 9138 073e 9176 3dbe 2edc 0cbe bf1e 1abd
00000300: ed90 f93c 2b8d 333e a56e 5b3d fe22 923d
00000310: fdab d53c ea0a 86bd 6e1d 2bbe 1e68 0dbe
00000320: 18b3 65bc a694 0cbe 0415 c3bd dc7b c93d
00000330: eeb6 013d cd30 c93d 9584 34bd dd1f ae3d
00000340: 6cee 443d 073a 113e 3e60 dfbc 8b2e d9bd
00000350: 028a f73d 941b 02bd 859e febd 51be 1a3e
00000360: 207f 12be ee33 c9bc de85 8ebd dc37 8a3d
00000370: b1b4 f6bc 7cf6 2cbe 4dcb e93d 9321 c1bc
00000380: ca22 cf3d 8671 13be 59bc 5b3e 2748 d0bd
00000390: c717 1e3c 0d81 ad3e 654c ccbd f1cb 20be
000003a0: 0e97 523e b9e7 d4be 5827 1ebe 1f01 10be
000003b0: cb35 8f3e fac7 25be a8e9 59be f1aa 023f
000003c0: 958a 82bd 876c c7bd d4b7 dc3e 7644 1b3d
000003d0: 4f78 acbd a404 003e 04c0 923e ddba 103e
000003e0: c119 073f 851a 693e 5d2b 05bd 0419 8e3e
000003f0: 5818 58bd 54ae 653c 37de d5bd 0532 b43d

conv2.bias f4 [16]
0.051912628 0.05806536 -0.09683866 0.115638524 0.02502774 -0.07287961 -0.0496914 -0.015146971
0.032978408 -0.07402926 -0.17418632 0.063356966 -0.09035576 0.088159665 0.1366727 0.037539743
00000000: 56a2 543d f1d5 6d3d 5953 c6bd e4d3 ec3d
00000010: fa06 cd3c e841 95bd 3689 4bbd 002b 78bc
00000020: 5e14 073d a79c 97bd e65d 32be 4cc1 813d
00000030: 710c b9bd 0e8d b43d eef3 0b3e 46c3 193d

classifier.weight f4 [10, 784]
-0.0014375321 0.012212978 0.05164158 -0.06303326 0.011098297 0.13649729 0.06618619 0.033146452
0.06921929 -0.021372491 0.034656778 0.018954257 0.022147471 0.10140584 0.088735476 0.057902575
0.030920567 -0.0458578 -0.030800331 0.008033269 0.02808215 0.022429982 -0.032525018 0.008333655
-0.027144492 -0.013542653 -0.054230276 -0.040138584 -0.0394825 -0.08730608 0.034444377 -0.009434517
0.018151833 -0.053560324 -0.087654725 -0.06644098 -0.065894574 0.062226407 0.028385285 -0.0388656
-0.0076663117 -0.109973975 -0.043302637 -0.07047479 0.035310175 0.030256452 0.012948538 0.011909014
-0.110781476 -0.0023768384 -0.029895753 0.06550316 -0.07312877 -0.1119774 -0.015536939 0.14506711
0.0134315165 0.14785224 0.07680603 -0.043339077 -0.14048272 0.045162413 0.048484266 -0.010956211
0.10195062 0.03405175 -0.14162336 -0.058341354 0.05688353 0.046206497 -0.062426504 -0.03839414
0.06660018 -0.09383808 -0.013829336 -0.013844952 -0.009790509 -0.08719139 -0.031470507 0.050258275
-0.02925431 0.012662421 0.0024729213 -0.088021256 -0.083659455 -0.028924238 0.020249454 0.0022961071
-0.05901962 0.023017602 -0.14100218 -0.027635124 -0.06806735 0.12512864 0.072676085 -0.07448502
0.077610016 -0.16511007 0.071862 0.09751974 0.020055225 -0.030609736 0.05107555 0.06806432
0.10294208 0.04548889 0.006721114 0.08574479 0.030730743 0.059570223 -0.011426778 0.016476383
-0.00166305 0.024189085 -0.06676422 -0.055944372 -0.062290374 -0.014269258 -0.04429893 -0.11172303
0.017336523 -0.054259166 -0.010253156 -0.06502981 -0.07866343 -0.026920395 -0.082886755 -0.06661764
-0.009542756 -0.0344723 -0.037294853 0.012598169 -0.070488825 -0.103065416 -0.05483227 -0.020702645
-0.034112446 -0.019892301 0.04161199 -0.03407519 -0.10315811 -0.02191046 0.056802977 -0.043880157
-0.002192013 0.045570057 -0.057817463 -0.063231625 -0.03258599 0.05749856 -0.024329387 -0.047418427
-0.042333893 0.09166159 -0.1373136 0.02478533 0.017427294 0.14847289 -0.043464974 -0.043259587
0.001941194 -0.12389325 -0.04081741 -0.1963565 -0.09689747 0.020411856 -0.006177815 0.068902574
0.100773536 0.18236868 -0.08809145 0.006479853 0.14238286 0.06630379 0.07699604 0.0244264
0.14379276 -0.077800125 -0.013894084 0.012380336 0.007966898 0.008757056 0.099277474 -0.00948005
-0.15215828 -0.092337295 -0.18504918 0.046439674 0.038414404 0.08636499 -0.04336657 -0.071859576
-0.04364985 -0.24535841 0.048968807 -0.007578684 0.102869056 -0.03413946 -0.018978639 -0.021793298
0.031004695 0.09287377 -0.018347042 0.06092629 0.06636856 -0.0077183736 0.0051249643 0.07827573
0.010838423 -0.10538841 0.09576528 0.011352362 -0.07765841 0.012529233 0.057421815 -0.001317126
-0.124212705 -0.041748263 -0.028276084 -0.057673667 -0.0096569965 -0.022163762 -0.06440548 -0.104690306
-0.137809 0.050086323 -0.012588081 -0.033696942 -0.0517432 -0.085586265 -0.048799805 -0.1527825
0.0738566 -0.07267112 -0.02958948 -0.0119382795 -0.08408387 -0.017652359 -0.092279255 0.15209907
-0.083744265 -0.023841191 0.042248096 -0.07761432 -0.031563736 0.0010120193 0.011859104 0.08043745
-0.11781223 0.027135238 0.1077006 0.12880978 0.05000792 0.07461381 -0.004652594 0.013094055
00000000: 936b bcba f118 483c 1f86 533d 9517 81bd
00000010: a2d5 353c f2c5 0b3e a08c 873d 93c4 073d
00000020: d8c2 8d3d 5d15 afbc 44f4 0d3d f545 9b3c
00000030: 9d6e b53c ddad cf3d f2ba b53d 402b 6d3d
00000040: 214d fd3c 63d5 3bbd fa50 fcbc f99d 033c
00000050: 890c e63c 15bf b73c f438 05bd e289 083c
00000060: 205e debc 01e2 5dbc 9120 5ebd 5b68 24bd
00000070: 67b8 21bd 88cd b2bd 8c15 0d3d 3b93 1abc
00000080: 27b3 943c 1262 5bbd 5284 b3bd 3512 88bd
00000090: bcf3 86bd 1ee1 7e3d 4288 e83c 8931 1fbd
000000a0: af35 fbbb 093a e1bd 1b5e 31bd 1655 90bd
000000b0: 67a1 103d 61dc f73c 1b26 543c 061e 433c
000000c0: 66e1 e2bd bbc4 1bbb f0e7 f4bc 8526 863d
000000d0: 89c4 95bd 6854 e5bd a58e 7ebc 798c 143e
000000e0: dd0f 5c3c 9466 173e 7b4c 9d3d 5184 31bd
000000f0: b4da 0fbe 39fc 383d 7097 463d ae81 33bc
00000100: 7dcb d03d d979 0b3d b705 11be 58f7 6ebd
00000110: b4fe 683d 0643 3d3d efb2 7fbd 2c43 1dbd
00000120: ad65 883d 2e2e c0bd 7094 62bc f0d5 62bc
00000130: 5f68 20bc 6691 b2bd 38e7 00bd 9fdb 4d3d
00000140: bca6 efbc 0b76 4f3c bc10 223b 7d44 b4bd
00000150: a655 abbd 86f2 ecbc 2fe2 a53c 497a 163b
00000160: 8fbe 71bd 698f bc3c e062 10be 0e63 e2bc
00000170: e566 8bbd b921 003e 33d7 943d 9a8b 98bd
00000180: 00f2 9e3d 9d12 29be 622c 933d 6eb8 c73d
00000190: db4a a43c 45c1 fabc 9934 513d 4e65 8b3d
000001a0: 4cd3 d23d 8f52 3a3d ca3c dc3b f79a af3d
000001b0: 0abf fb3c e8ff 733d 6137 3bbc 7bf9 863c
000001c0: b3fa d9ba 3028 c63c aebb 88bd ed25 65bd
000001d0: 3124 7fbd 9bc9 69bc cb72 35bd 0bcf e4bd
000001e0: 5305 8e3c dc3e 5ebd dafc 27bc 592e 85bd
000001f0: 4b1a a1bd 2988 dcbc 88c0 a9bd d46e 88bd
00000200: 3859 1cbc d432 0dbd 7dc2 18bd 8d68 4e3c
00000210: 725c 90bd f613 d3bd cd97 60bd 9898 a9bc
00000220: 7eb9 0bbd 2ef5 a2bc 5671 2a3d 6d92 0bbd
00000230: 8f44 d3bd 917d b3bc 3daa 683d aebb 33bd
00000240: e0a7 0fbb aba7 3a3d 01d2 6cbd 957f 81bd
00000250: e378 05bd 9c83 6b3d 6c4e c7bc d339 42bd
00000260: 4e66 2dbd 12b9 bb3d f09b 0cbe 9b0a cb3c
00000270: afc3 8e3c 4709 183e 5408 32bd f730 31bd
00000280: a96f fe3a bfbb fdbd 2830 27bd ae11 49be
00000290: 2e72 c6bd c436 a73c 456f cabb cb1c 8d3d
000002a0: 5b62 ce3d dbbe 3a3e 4a69 b4bd f254 d43b
000002b0: d0cc 113e 48ca 873d 1ab0 9d3d e019 c83c
000002c0: 693e 133e ac55 9fbd 03a4 63bc e5d6 4a3c
000002d0: 9887 023c c179 0f3c fd51 cb3d 3652 1bbc
000002e0: 61cf 1bbe 561b bdbd 887d 3dbe 8737 3e3d
000002f0: 6c58 1d3d 21e0 b03d 25a1 31bd 1d2b 93bd
00000300: 2fca 32bd 3c3f 7bbe 8493 483d 9c56 f8bb
00000310: 03ad d23d d2d5 0bbd 1779 9bbc dc87 b2bc
00000320: 8ffd fd3c 9a34 be3d 894c 96bc d88d 793d
00000330: 3dec 873d 69ea fcbb 51ef a73b 074f a03d
00000340: a493 313c e1d5 d7bd 9620 c43d 42ff 393c
00000350: 5f0b 9fbd 6947 4d3c 2333 6b3d 6aa3 acba
00000360: 3b63 febd 3a00 2bbd 3fa3 e7bc 393b 6cbd
00000370: 6138 1ebc c790 b5bc 05e7 83bd df67 d6bd
00000380: cd1d 0dbe 5127 4d3d 3d3e 4ebc ce05 0abd
00000390: adf0 53bd da47 afbd 4ee2 47bd 0473 1cbe
000003a0: 2142 973d 99d4 94bd a365 f2bc c698 43bc
000003b0: 2a34 acbd ae9b 90bc e8fc bcbd dcbf 1b3e
000003c0: 1d82 abbd 9a4e c3bc 570c 2d3d 42f4 9ebd
000003d0: fa48 01bd bca5 843a b04c 423c 64bc a43d
000003e0: 8a47 f1bd b84a de3c 2292 dc3d b6e6 033e
000003f0: 1bd5 4c3d 20cf 983d ca74 98bb 7288 563c

classifier.bias f4 [10]
0.013823761 -0.054488204 0.09277382 0.00041923395 -0.11707664 -0.049571585 0.044672694 0.07544284
-0.04399656 -0.022730907
00000000: 0e7d 623c 062f 5fbd 3300 be3d a1cc db39
00000010: e1c5 efbd 930b 4bbd b7fa 363d c781 9a3d
00000020: bd35 34bd 2b36 babc
